S2UNet/checkpoints/new_model_weights.pth (torch, 647810 bytes, 99 tensors)

decomposer.encoder.0.weight f4 [32, 3, 3, 3]
0	0xbe09f1df	-0.13471173
1	0xbc7c8945	-0.015413587
2	0xbdcff301	-0.10153771
3	0xbd70aaaa	-0.058756508
4	0xbbfd3b24	-0.0077279974
5	0xbd1f32fc	-0.038866982
6	0xbe12b1bf	-0.14325617
7	0xbd2879b8	-0.041131705
8	0xbe75d046	-0.24005231
9	0x3e0422da	0.1290392
10	0x3da99107	0.08279615
11	0x3e56a7e2	0.2096248
12	0x3da68257	0.08130329
13	0xbd845f86	-0.06463532
14	0xbd93dba1	-0.07219625
15	0x3d9f58b9	0.077805944
16	0x3d9d996a	0.07695277
17	0x3e165567	0.14681016
18	0xbd5dc9f8	-0.05414769
19	0xbd5ab322	-0.05339349
20	0xba9ef151	-0.0012126361
21	0x3c2e26c9	0.010629364
22	0x3d2e111c	0.042496786
23	0xbcd802ab	-0.02636846
24	0x3d204087	0.039124038
25	0x3dd2e203	0.102970146
26	0x3cc595e8	0.024119332
27	0x3da4fa77	0.08055585
28	0x3e515eeb	0.20446365
29	0xbe46b943	-0.19406609
30	0xbca8db7b	-0.020612469
31	0xbe6617d7	-0.22470032
32	0x3d6f5da8	0.058438927
33	0xbc9d3b16	-0.019193213
34	0xbcfb65ff	-0.030688284
35	0x3dc4b9ce	0.09605752
36	0x3db0455e	0.08606981
37	0x3d963ac7	0.0733543
38	0x3c42d9e3	0.011892769
39	0xbd9f6e43	-0.07784703
40	0xbe3606a0	-0.17775965
41	0xbe0afa7b	-0.13572113
42	0xbcc988c4	-0.024601348
43	0x3dc34c17	0.09535997
44	0x3e440770	0.19143462
45	0x3d7fd0aa	0.062454857
46	0x3d234187	0.039857414
47	0xbdf2c30d	-0.11853609
48	0xbddc9fa5	-0.10772637
49	0xbd2c6f77	-0.04209849
50	0x3c85e0de	0.016342577
51	0xbdb4674a	-0.08808763
52	0x3e1295c3	0.14314942
53	0x3c93a797	0.018024249
54	0xbe894a23	-0.26814374
55	0xbe25ab4f	-0.1617863
56	0xbd9f6dfa	-0.07784648
57	0xbdb72220	-0.08942056
58	0xbeb64ec0	-0.35606956
59	0xbe4cee1f	-0.20012711
60	0xbe5a5b9c	-0.21324009
61	0xbdaba4d5	-0.083810486
62	0xbeb9486c	-0.36188066
63	0xbe81bd3f	-0.25339696
64	0xbab331c4	-0.0013671448
65	0xbd6daa7b	-0.05802391
66	0xbdf120b9	-0.117738195
67	0x3df6ae1e	0.12044929
68	0xbc8d6d4a	-0.017264027
69	0xbd28ddcb	-0.041227143
70	0xbdb9b247	-0.09067207
71	0x3d23a82e	0.03995531
72	0xbdd7b85e	-0.10533212
73	0x3e24cf95	0.16094811
74	0xbcd1e289	-0.025620716
75	0x3d49451b	0.04913817
76	0xbd77a5b6	-0.06046077
77	0xbd8af19d	-0.06784365
78	0x3a7e9d0f	0.00097127346
79	0x3c07659f	0.008263974
80	0x3d4a9cfe	0.049466126
81	0x3de760c2	0.11297752
82	0xbdb6df56	-0.08929317
83	0x3ce5e52f	0.028063385
84	0x3e1de6aa	0.15420023
85	0xbcaa8bda	-0.02081864
86	0x3c7ffe3c	0.015624579
87	0x3dca9e67	0.09893494
88	0x3cde7db7	0.027159555
89	0x3d107b2d	0.03527372
90	0x3e6c125a	0.23053876
91	0x3d405d56	0.046964012
92	0x3ce4888f	0.027897147
93	0xbca6496c	-0.020298682
94	0x3e1a1334	0.15046388
95	0xbd99859b	-0.07496186
96	0x3d04ce96	0.03242358
97	0x3da5fa2c	0.08104357
98	0xbd95a8cc	-0.07307586
99	0xbd01dcce	-0.031704716
100	0xbbebda56	-0.0071976585
101	0x3d96cebd	0.07363651
102	0x3d806ddd	0.06270955
103	0x3c7fc087	0.015609867
104	0xbdabac9a	-0.083825305
105	0xbe63191b	-0.22177546
106	0xbb9d0ea9	-0.0047930074
107	0x3d42069c	0.047369584
108	0xbc70a22a	-0.0146871
109	0xbdb4f843	-0.08836415
110	0x3d45ef28	0.04832378
111	0xbde6fbf7	-0.11278527
112	0x3d203ef0	0.039122522
113	0x3de662c2	0.11249305
114	0xbe6105cb	-0.21974866
115	0xbd0c8a8e	-0.034311824
116	0x3d3ff8fa	0.046868302
117	0x3d7dd366	0.061969183
118	0x3d97b06f	0.07406699
119	0xbe382694	-0.17983466
120	0xbda5b03e	-0.08090256
121	0xbd90bbd0	-0.070670724
122	0x3cf2617e	0.029587504
123	0xbdb13f40	-0.08654642
124	0x3d313d6b	0.043271463
125	0xbce71f6e	-0.028213229
126	0x3c7c1d35	0.015387823
127	0xbd1ec6b6	-0.038763724
128	0x3e72df52	0.23718002
129	0xbdd5b8c7	-0.10435634
130	0x3d4d24c6	0.050083898
131	0x3db6407e	0.0889902
132	0xbd884b8f	-0.06655037
133	0x3dd5057d	0.104014374
134	0x3c1547d9	0.009111368
135	0xbd1297e5	-0.03578939
136	0xbd718524	-0.058964863
137	0x3d1f1812	0.038841315
138	0x3e3e954d	0.18611641
139	0xbda94f10	-0.08267033
140	0xbeb03c98	-0.3442123
141	0xbe4e2a85	-0.20133407
142	0xbd63ddad	-0.05563133
143	0xbe72d95f	-0.23715733
144	0xbc1045e3	-0.008805725
145	0xbd875d3a	-0.066095784
146	0x3d6b3259	0.057421062
147	0xbd316a76	-0.04331442
148	0x3da7a97d	0.08186624
149	0xbe730712	-0.23733166
150	0x3d6291a8	0.05531469
151	0x3bb28838	0.0054483674
152	0xbcfe6111	-0.031052144
153	0x3dbd0ed9	0.092313476
154	0xbdd20450	-0.10254729
155	0x3bed191e	0.00723566
156	0xbde551c0	-0.11197233
157	0xbdd51efb	-0.104063
158	0xbd0ebff9	-0.03485105
159	0x3e0bd990	0.13657212
160	0x3c9ccaa3	0.019139593
161	0xbd986598	-0.074412525
162	0xbc5a5436	-0.0133257415
163	0x3dee9950	0.11650336
164	0x3d9b5add	0.0758569
165	0x3e1499f7	0.14511858
166	0x3be81cf2	0.0070835287
167	0xbd3ee7e9	-0.046607886
168	0x3d15294c	0.036416337
169	0x3db5c422	0.088753
170	0x3d2c494a	0.04206208
171	0xbd7cb687	-0.06169751
172	0xbddef252	-0.10886063
173	0xbe0f1006	-0.13970956
174	0x3d3ba223	0.045808922
175	0xbda0070f	-0.07813846
176	0xbde67093	-0.112519406
177	0xbd57460f	-0.052557047
178	0xbe90dba6	-0.28292578
179	0xbe2c6e23	-0.16838889
180	0x3cfb99f0	0.030713052
181	0xbd1e1d21	-0.038602
182	0x3df5553b	0.11979147
183	0x3dccd2f8	0.100011766
184	0x3dcf336b	0.10117229
185	0x3dc6d5c5	0.09708742
186	0x3d8704b6	0.065926954
187	0xbd2e7c89	-0.042599235
188	0x3c0d5f2d	0.008628649
189	0xbdb0dbd6	-0.086356804
190	0x3d922e9a	0.07137795
191	0xbbbfbf0d	-0.0058516324
192	0xbe2940d4	-0.16528636
193	0xbaa04354	-0.0012227097
194	0xbbf33164	-0.0074216593
195	0x3e182ddb	0.14861242
196	0x3e11be52	0.14232758
197	0xbc972009	-0.018447893
198	0x3c24116f	0.010013922
199	0xbd676e95	-0.056501944
200	0x3c21b77b	0.009870405
201	0x3e38bb5e	0.18040225
202	0x3e83aa32	0.25715786
203	0xb9bf7e92	-0.0003652466
204	0x3e0ace85	0.13555343
205	0xbd102e56	-0.03520044
206	0x3dfadb44	0.12248853
207	0xbe0ab49c	-0.1354546
208	0xbd0066dd	-0.031348098
209	0x3bc0d654	0.005884925
210	0xbdd20dbe	-0.10256527
211	0xbe14997c	-0.14511675
212	0xbd088b88	-0.033336192
213	0x3d8cf4f1	0.06882656
214	0xbe5b43f9	-0.21412648
215	0xbe107b66	-0.14109573
216	0xbd7ea28d	-0.06216674
217	0xbe830290	-0.25587893
218	0x3dd83e71	0.10558785
219	0xbe944f87	-0.28966925
220	0x3e180c9b	0.14848559
221	0xbdf86c28	-0.12130004
222	0xbdffc79a	-0.12489243
223	0xbbcee71f	-0.006314173
224	0xbdc0224c	-0.093815416
225	0xbc3ad87e	-0.011404155
226	0x3bbdb25a	0.0057890834
227	0x3da57c72	0.08080377
228	0x3d8b6b4b	0.06807574
229	0x3cd15fb3	0.025558328
230	0xbdc89eff	-0.09795951
231	0x3db7f0bd	0.08981464
232	0xbd9ecbf0	-0.07753742
233	0x3e0cac49	0.13737597
234	0xbe06f792	-0.13180378
235	0x3dd2a6a4	0.102856904
236	0x3cc67361	0.024224939
237	0xbc7be6d8	-0.015374862
238	0x3d93f208	0.07223898
239	0xbd55adbe	-0.052167647
240	0x3e0dd80d	0.13851948
241	0x3ddcbc6c	0.10778126
242	0xbcd517b7	-0.026012285
243	0x3db58bf8	0.088645875
244	0x3c5ed737	0.013601116
245	0xbdcfdd6d	-0.101496555
246	0x3df2f2ac	0.11862692
247	0x3da41c34	0.08013192
248	0xbe216460	-0.15760946
249	0xbca8917d	-0.020577187
250	0x3d86b446	0.06577353
251	0xbd9ac0f6	-0.07556336
252	0x3ce82622	0.028338496
253	0x3d8fe1c7	0.070254855
254	0xbdb8e2c9	-0.09027631
255	0x3dca257a	0.09870429

decomposer.encoder.0.bias f4 [32]
0	0x3a88bc65	0.0010432123
1	0xbad84eed	-0.0016503014
2	0x3c286f1b	0.010280396
3	0xbc2e9085	-0.010654573
4	0xbcc53b5c	-0.024076156
5	0x3ca4a54f	0.020098357
6	0x3a146474	0.00056607206
7	0x3b53ae3e	0.0032299901
8	0x3b64d4e9	0.0034916943
9	0xbafe8873	-0.0019419327
10	0x3cc8f051	0.024528654
11	0xbb154b7b	-0.0022780586
12	0xbcc31401	-0.02381325
13	0xb8ac8ee2	-8.228213e-05
14	0x3b176e83	0.0023106642
15	0x3bae1bdc	0.0053133797
16	0x3ba2f863	0.0049734577
17	0x3bfe1053	0.007753411
18	0x3c6d5d64	0.014487598
19	0x3b817133	0.003950262
20	0x3c17f6d4	0.009275157
21	0xbb136872	-0.0022492674
22	0x3bd1ced5	0.00640283
23	0xbb1f92c4	-0.0024348954
24	0xbca2fde2	-0.019896451
25	0x3c2b26d8	0.010446273
26	0xbb42bfaa	-0.0029716291
27	0xba0c2afa	-0.000534698
28	0x3a8a3c23	0.0010546487
29	0xbb483894	-0.0030551301
30	0xbc021d87	-0.00794161
31	0xbafc8bcd	-0.0019267738

decomposer.encoder.2.weight f4 [32, 32, 3, 3]
0	0x3dcc5528	0.0997718
1	0xbbdbfe2b	-0.006713649
2	0x3e1dfccf	0.1542847
3	0xbd533e9b	-0.051573377
4	0x3e2a8c7c	0.16655153
5	0x3cb5e78c	0.022205137
6	0x3dc5b992	0.09654535
7	0x3c8d778e	0.017268922
8	0xbb4e6b19	-0.003149694
9	0x3a65c755	0.00087653595
10	0xbb01e82a	-0.0019822218
11	0x3ba98f71	0.0051745703
12	0x3c1f0255	0.009705146
13	0xbe0ebcd8	-0.13939226
14	0x3d9d314b	0.076754175
15	0xbd187855	-0.037224133
16	0x3b37db95	0.0028054465
17	0xbd60b2cf	-0.054858025
18	0x3c97a12f	0.018509476
19	0x3e32f1f7	0.17475115
20	0x3db0ae22	0.08626963
21	0x3e11a5fc	0.14223474
22	0x3df837ec	0.12120041
23	0x3cf3f8cf	0.029781727
24	0x3d7a5d6c	0.06112425
25	0x3da7796f	0.081774585
26	0x3da9adec	0.08285126
27	0xbd468e0c	-0.04847531
28	0xbd455c90	-0.048183978
29	0x3d91dd9e	0.07122348
30	0xbe08ce08	-0.13359845
31	0x3d6a6848	0.057228357
32	0xbdbd67d8	-0.09248322
33	0xbdd228f8	-0.102617204
34	0xbe01f26f	-0.12690137
35	0x3c3289f3	0.0108971475
36	0xbdcd9e07	-0.10039907
37	0x3c11676e	0.008874757
38	0xbcd1b044	-0.025596745
39	0xbde80f9d	-0.11331103
40	0x3d44304e	0.04789763
41	0x3d9af1d3	0.075656556
42	0x3da4c7ad	0.08045898
43	0xbcdb1f84	-0.026748426
44	0x3d1fcfd9	0.03901658
45	0x3d489da0	0.048978448
46	0x3e0c9ac4	0.13730913
47	0xbdbfd8df	-0.09367537
48	0x3d8a3f6b	0.06750377
49	0x3b9e8e41	0.0048387353
50	0x3d0c723b	0.034288626
51	0x3e014299	0.12623061
52	0x3e0a197b	0.13486283
53	0x3c8b3dd6	0.01699726
54	0x3d2e1e8b	0.042509597
55	0xbc075341	-0.008259595
56	0xbd4882d6	-0.0489529
57	0xbb9d5bac	-0.004802188
58	0x3e4dc6ad	0.2009532
59	0xbcacb79e	-0.02108365
60	0xbd484c18	-0.048900694
61	0x3e2ba655	0.1676267
62	0xbdcee4d9	-0.10102243
63	0xbd25dbeb	-0.040492933
64	0x3d2b3870	0.04180187
65	0xbe10b8e1	-0.14133026
66	0xbe061519	-0.13093986
67	0x39cb30d8	0.0003875557
68	0xbdf26430	-0.118355155
69	0xbd69ead6	-0.057108723
70	0x3d7a75df	0.061147567
71	0x3e09adb7	0.13445173
72	0x3d9b630f	0.07587253
73	0x3d92dec6	0.07171397
74	0xbc84e998	-0.016224667
75	0x3d9e65f0	0.07734287
76	0x3cbe311a	0.023216773
77	0xbd2d8539	-0.04236338
78	0x3b7deaf6	0.0038744784
79	0xbdb77338	-0.08957523
80	0x3dd7822a	0.10522874
81	0x3dfdd403	0.12393954
82	0xbe049649	-0.12947954
83	0xbd1f28f8	-0.03885743
84	0x3c03b7b4	0.008039404
85	0x3dcb30f1	0.09921444
86	0xbda5a717	-0.080885105
87	0xbd94c5b8	-0.07264274
88	0x3b94049e	0.004517152
89	0xbd996502	-0.07489969
90	0x3b99f0fb	0.0046979166
91	0xbdb0724b	-0.0861555
92	0x3d0054c3	0.031330835
93	0xbce9d496	-0.028543752
94	0x3daee3c7	0.08539539
95	0x3dd4d330	0.10391843
96	0xbd976bd5	-0.07393614
97	0xbd166512	-0.036717482
98	0xbd431986	-0.047631763
99	0xbdad4ab4	-0.08461514
100	0x3d99cc9f	0.075097315
101	0xbdacb127	-0.08432227
102	0x3c012e3a	0.007884556
103	0xbcc827d5	-0.024433056
104	0x3d4ff310	0.05076891
105	0xbe0884e5	-0.13331945
106	0xbd40cc81	-0.04707003
107	0xbd02a838	-0.031898707
108	0x3de69e2c	0.11260638
109	0x3d25a703	0.040442478
110	0x3df54bd3	0.11977353
111	0x3c77c60f	0.015122904
112	0xbc8ce32c	-0.017198168
113	0x3d4e34a3	0.050343167
114	0x3dc072b7	0.0939688
115	0x3d00a395	0.031406004
116	0x3e672615	0.22573121
117	0x3e31d7f3	0.17367534
118	0xbcd65d49	-0.026167529
119	0x3d237d15	0.03991421
120	0xbda9464d	-0.08265362
121	0xbd82f678	-0.063946664
122	0x3b4db0dd	0.0031385936
123	0xbc78e869	-0.01519213
124	0x3d2fdb31	0.042933647
125	0x3e2c4c3e	0.16825959
126	0xbd3b0b55	-0.045665104
127	0x3c964d84	0.01834751
128	0x3c2141c8	0.009842344
129	0xbdf9d222	-0.12198283
130	0xbc38330b	-0.011242638
131	0xbcb577c7	-0.02215184
132	0x3dcfcfde	0.101470694
133	0x3cd70034	0.026245214
134	0xbcb9583e	-0.022625085
135	0xbe032faf	-0.12811159
136	0xbe220cc6	-0.15825185
137	0xbe1510cf	-0.14557193
138	0xbc8e407c	-0.017364733
139	0xbe1d30be	-0.15350625
140	0xbdba21e0	-0.090884924
141	0xbd889787	-0.066695265
142	0xbe65ed68	-0.22453845
143	0xbe56e2ab	-0.20984904
144	0x3dff82a2	0.12476088
145	0x3d809c16	0.06279771
146	0xbd42f4b4	-0.04759665
147	0xbe038f54	-0.12847644
148	0xbdc11a71	-0.094288714
149	0xbc700979	-0.014650696
150	0xbcc66409	-0.024217622
151	0xbe0ef43a	-0.13960353
152	0xbe2a28b3	-0.16617088
153	0xbd37ea85	-0.04490139
154	0xbc2a2ef5	-0.010387172
155	0xbcddba31	-0.027066322
156	0xbe0a0545	-0.13478573
157	0xbdd9706a	-0.106171444
158	0xbc3d2d38	-0.0115464255
159	0x3cc6438a	0.024202127
160	0x3d6ca8e7	0.057778265
161	0x3dbae15e	0.09125017
162	0xbd8c5e15	-0.06853882
163	0x3dd2b467	0.10288315
164	0xbd36b8a0	-0.044609666
165	0x3cc3ccf8	0.023901448
166	0x3d2a4607	0.04157069
167	0x3c6ababd	0.014326748
168	0xbd9579ea	-0.07298644
169	0xbdba55a8	-0.09098369
170	0xbdf5a52c	-0.11994395
171	0x3d6d901d	0.057998765
172	0xbd3daa6e	-0.046305113
173	0xbcf26319	-0.02958827
174	0x3dd54801	0.10414124
175	0xbd3d167b	-0.046164017
176	0xbd7acfb2	-0.06123323
177	0x3c137e60	0.009002298
178	0x3d16a090	0.036774218
179	0xb9c36f7e	-0.00037276366
180	0xbd9e6d94	-0.07735744
181	0xbc9b7e1c	-0.018981032
182	0x3e25f1b7	0.16205488
183	0xbc415194	-0.011799235
184	0xbd593d8d	-0.053037215
185	0x3d6c3be3	0.0576743
186	0x3dc20262	0.09473111
187	0x3c7636d1	0.015027718
188	0xbcb82ae3	-0.022481387
189	0x3d60bdbe	0.054868452
190	0x3e0f8258	0.14014566
191	0x3d51e2c5	0.051241655
192	0x3aeb7043	0.0017962534
193	0xbc445261	-0.011982531
194	0x3d9b5435	0.075844206
195	0x3cab50b8	0.020912513
196	0xbcb7d5e0	-0.02244085
197	0xbc9cf0d7	-0.01915781
198	0xbd92dfbe	-0.07171582
199	0x3c6ddc30	0.014517829
200	0xbd7440dd	-0.05963217
201	0xbdc9a101	-0.09845162
202	0x3e10eea0	0.14153528
203	0x3e0eb620	0.13936663
204	0x3d4d3233	0.0500967
205	0x3d24e12e	0.04025381
206	0x3e453456	0.19258246
207	0x3d1b858b	0.037969153
208	0xbd233f23	-0.039855134
209	0x3cec220a	0.028824825
210	0xbdd0b3b8	-0.10190529
211	0xbe1bf92a	-0.15231767
212	0xbc82105d	-0.015876943
213	0xbc8683d8	-0.01642029
214	0x3d50263d	0.050817717
215	0x3a7be4fa	0.00096090103
216	0xbcbb2c5a	-0.022848297
217	0xbd9faaf4	-0.077962786
218	0xbbb115ca	-0.005404209
219	0x3d7e560c	0.06209378
220	0xbc1531f8	-0.009106152
221	0xbd689563	-0.05678309
222	0xbd83f21b	-0.06442662
223	0x3e0e400e	0.13891622
224	0xbd0e22a8	-0.03470102
225	0xbd2c15ed	-0.042013098
226	0xbd44d56f	-0.04805511
227	0xbc931a62	-0.017956916
228	0xbc47bfd8	-0.012191735
229	0xbc846214	-0.016160049
230	0xbdbc04a7	-0.09180575
231	0xbe4721bd	-0.19446464
232	0x3d6b32ab	0.057421368
233	0xbd43fe98	-0.04785022
234	0xbc4a20ae	-0.012336893
235	0xbd8a7972	-0.06761445
236	0xbc546e2f	-0.012965723
237	0xbd49ce1c	-0.049268827
238	0x3d949d4d	0.07256565
239	0xbd990c24	-0.07473019
240	0xbd6d9459	-0.058002803
241	0xbb418cf7	-0.0029533484
242	0xbd366d1f	-0.04453766
243	0x3cddeb41	0.027089717
244	0x3d8ac6a0	0.06776166
245	0x3bf8e074	0.0075951163
246	0x3d739dae	0.059476547
247	0x3dfa4b5a	0.122214034
248	0xbd2e2eb4	-0.04252501
249	0xbd22da9a	-0.039759256
250	0x3e0c4557	0.13698326
251	0x3d7e205d	0.062042583
252	0x3cc9b769	0.02462359
253	0xbd350d82	-0.044202335
254	0x3d1b9a25	0.0379888
255	0x3cef6780	0.029224157

decomposer.encoder.2.bias f4 [32]
0	0x39cc7861	0.000389996
1	0x3cd6f8c9	0.026241677
2	0x3b2e472f	0.0026592722
3	0x3ca4c383	0.020112759
4	0xbc4befa2	-0.01244727
5	0x3c8db42e	0.01729783
6	0xbc493bb0	-0.012282297
7	0x3d166008	0.036712676
8	0x3cfcc00b	0.030853292
9	0xbb774c07	-0.0037734525
10	0xbbad6661	-0.0052917455
11	0xbb90601f	-0.00440599
12	0x3d36c618	0.04462251
13	0x3cfda8ad	0.03096422
14	0xbb1c93e7	-0.0023891868
15	0xbcf4b44d	-0.02987113
16	0x3c9b0580	0.018923521
17	0xbb9a4597	-0.004708003
18	0xbb60a9aa	-0.0034280815
19	0xbb15cf9c	-0.002285934
20	0x3c0e32c1	0.008679093
21	0x3a9dfbe3	0.0012053218
22	0x3db21459	0.08695287
23	0xbc3932a9	-0.011303582
24	0x3b3968f7	0.0028291324
25	0xbb71ee3d	-0.0036915683
26	0x3b9f27ba	0.0048570307
27	0x3d42f158	0.047593445
28	0xbcbd6e47	-0.023123873
29	0x3c01edf4	0.007930268
30	0x3c4b76a6	0.012418425
31	0xbbb37dc9	-0.0054776412

decomposer.feature_enhancer.0.spectral_att.0.weight f4 [8, 32, 1, 1]
0	0xbf9fbc2c	-1.24793
1	0xbecb0317	-0.39650795
2	0x3dd2f752	0.10301079
3	0xbd973cef	-0.07384669
4	0xbfd4de19	-1.6630279
5	0x3f00c037	0.50293297
6	0xbccc885d	-0.024967367
7	0xbeb23c12	-0.34811455
8	0xbf16f6ea	-0.5897051
9	0x3f5bdd9b	0.8588502
10	0x3f9aa636	1.2081974
11	0xbcc1f2ce	-0.023675349
12	0x3e3f0e04	0.1865769
13	0xbf2baaf1	-0.6705771
14	0xbe2a1f89	-0.16613592
15	0xbe92f379	-0.2870138
16	0xbfbd19b0	-1.4773464
17	0xbdf18fa7	-0.11794978
18	0xbb93f0f5	-0.0045148083
19	0x3f42651b	0.75935525
20	0xbe85d0de	-0.26135916
21	0x3ee271e2	0.4422751
22	0x3e0c6c60	0.13713217
23	0x3e9e1251	0.3087335
24	0x3ec54805	0.3853151
25	0x3f584d4e	0.8449296
26	0x3f816763	1.0109676
27	0xbe8a1c3d	-0.2697467
28	0x3dc5f1c9	0.096652575
29	0x3e746f7b	0.23870651
30	0xbe5edd65	-0.21764143
31	0x3e418292	0.18897465
32	0x3f394eaf	0.72385687
33	0xbee8d725	-0.45476642
34	0x3f2ffa4f	0.68741316
35	0x3ddee04c	0.10882625
36	0xbe1b2ed5	-0.15154584
37	0x3eee0a66	0.46492308
38	0x3f94f959	1.1638595
39	0xbe8bbbe5	-0.2729179
40	0xbf2defb9	-0.6794391
41	0xbedc8f69	-0.43078163
42	0x3f0087cd	0.50207216
43	0x3dab8580	0.083750725
44	0xbdac99bd	-0.08427761
45	0xbf870b6e	-1.0550363
46	0xbe3553f8	-0.17707813
47	0xbf35f0c8	-0.7107053
48	0xbf474192	-0.7783443
49	0x3f4fefe1	0.812254
50	0x3fa4fde7	1.2889985
51	0x3e6b1098	0.22955549
52	0x3f3db5ae	0.74105346
53	0x3eb5ef58	0.35534167
54	0xbc76ee53	-0.015071469
55	0x3f406568	0.75154734
56	0x3ebd3c50	0.36960077
57	0x3dd2cebb	0.10293337
58	0x3f030a46	0.5118755
59	0xbf0f8b57	-0.5607199
60	0x3e2270dd	0.15863366
61	0x3f95e8b5	1.1711642
62	0xbdfe449d	-0.12415431
63	0xbf161c02	-0.58636487
64	0xbf07084a	-0.52747023
65	0xbea4de02	-0.3220063
66	0xbe0deed6	-0.1386064
67	0x3e0cd2c1	0.13752271
68	0x3de50db5	0.11184255
69	0xbdda7288	-0.10666376
70	0x3e232587	0.15932284
71	0xbd7e9590	-0.062154353
72	0x3ddc605e	0.10760568
73	0x3e83fade	0.25777334
74	0xbdec6ec3	-0.115445636
75	0xbedabcdd	-0.42722216
76	0xbf28c6f9	-0.6592861
77	0x3f5b4ab2	0.8566085
78	0xbe24126e	-0.16022655
79	0xbe3e3e61	-0.18578483
80	0x3f4a7abe	0.7909354
81	0x3fa71758	1.3053999
82	0xbe8c4062	-0.2739287
83	0x3f06c750	0.52647877
84	0x3f814ced	1.0101601
85	0xbf32c3a0	-0.6982975
86	0xbe0184fb	-0.12648384
87	0xbee335bb	-0.4437693
88	0xbf046c5b	-0.5172784
89	0xbc83e0b7	-0.016098363
90	0xbf53ffd1	-0.8281222
91	0xbe76ffb3	-0.24120979
92	0x3eb6391a	0.3559044
93	0xbf982d27	-1.1888779
94	0x3d700125	0.05859484
95	0x3f24dade	0.64396465
96	0xbd6f985a	-0.058494903
97	0xbe557e42	-0.20848945
98	0xbf816184	-1.0107884
99	0xbf13b7b1	-0.57702166
100	0x400a5bfb	2.161864
101	0xbea1beeb	-0.3159097
102	0xbf0d0505	-0.55085784
103	0x3f71d5ed	0.9446705
104	0x3f89f87b	1.0778955
105	0xbedcdb55	-0.43136087
106	0xbf011a70	-0.50430965
107	0xbf284ece	-0.65745246
108	0x3f2db7a4	0.6785834
109	0x3fad76ce	1.3551881
110	0x3eccb181	0.39979175
111	0x3d2a8f5f	0.041640636
112	0x3f96994a	1.176553
113	0xbf19a22b	-0.60013074
114	0xbf3ec4d9	-0.74519116
115	0xbf498e01	-0.78732306
116	0xc0048122	-2.0703816
117	0xbf75cb06	-0.96012914
118	0x3fa15460	1.2603874
119	0xbb0beb9d	-0.0021350153
120	0xbf69f454	-0.9138844
121	0x3e49d7f9	0.19711293
122	0xbf6b2bd2	-0.9186374
123	0x3f8250e3	1.0180935
124	0xbc8355c8	-0.016032115
125	0xbec1e857	-0.37872574
126	0x3f776ec5	0.96653396
127	0x3d0fe7a1	0.035133008
128	0x3f92aade	1.1458395
129	0xbf2711c1	-0.65261465
130	0x3e3d74c4	0.18501574
131	0xbf08f8c9	-0.53504616
132	0x3efe988c	0.4972576
133	0xbec136c1	-0.37737086
134	0xbf83dbb6	-1.0301425
135	0xbf0a2bbf	-0.53973
136	0xbf0bce32	-0.54611504
137	0xbec43836	-0.38324136
138	0x388a6a8f	6.600201e-05
139	0xbf999091	-1.1997243
140	0x3f09b244	0.53787637
141	0xbf659846	-0.89685476
142	0x3eae0f69	0.33996132
143	0x3e89b29e	0.26894087
144	0xbeaab506	-0.33341235
145	0x3ec958f4	0.39325678
146	0x3ec213ce	0.37905735
147	0x3f8a9247	1.082589
148	0x3ee12e48	0.43980622
149	0xbe6e4edb	-0.23272268
150	0x3ef78694	0.48344862
151	0x3f01108d	0.5041588
152	0x3f62c566	0.88582456
153	0x3e84c418	0.25930858
154	0x3df549dc	0.11976978
155	0xbf4a7c5e	-0.7909602
156	0x3df4590a	0.11931045
157	0x3e59dedf	0.21276425
158	0xbf0e0cb3	-0.5548813
159	0x3ce63a10	0.028103858
160	0x3d140d0f	0.036145266
161	0x3f1ec67d	0.6202162
162	0x3f565a1c	0.83731246
163	0x3ca97f24	0.020690508
164	0xbf9fa33f	-1.2471694
165	0x3f0847f9	0.5323482
166	0x3ea4ea15	0.3220984
167	0xbf76aa9e	-0.9635409
168	0xbf8afbb6	-1.0858066
169	0x3f03a0b4	0.5141709
170	0x3e6626f3	0.22475795
171	0x3e1523c1	0.1456442
172	0x3f27a371	0.65483767
173	0xbf912792	-1.1340201
174	0xbea51414	-0.3224188
175	0x3e4ee5ce	0.20204851
176	0xbf6ed96d	-0.93300515
177	0x3ef29863	0.47381887
178	0x3f0b4dae	0.54415405
179	0x3f09262e	0.5357388
180	0x3ea68fb4	0.32531512
181	0x3f39e308	0.7261205
182	0x3e69dbcf	0.22837757
183	0xb9dd2aa5	-0.00042184177
184	0x3f0a8ec4	0.54124093
185	0x3e5c562c	0.21517247
186	0x3f01f224	0.507601
187	0x3e2f69f3	0.1713026
188	0xbe8246f1	-0.2544475
189	0x3e8455fd	0.25846854
190	0xbf268edc	-0.65061736
191	0x3f90292c	1.1262565
192	0x3f78e901	0.97230536
193	0x3d99bf16	0.0750715
194	0x3eb3a2e6	0.3508522
195	0x3f186256	0.5952505
196	0xbeacd852	-0.3375879
197	0x3e3e2e46	0.1857234
198	0xbe7abaa4	-0.2448526
199	0xbf9cc2e9	-1.2246982
200	0xbea75338	-0.32680678
201	0x3f1bf3c5	0.6091884
202	0xbe44c172	-0.19214419
203	0x3d068d8f	0.032849845
204	0xbe92f85b	-0.28705105
205	0xbf81e156	-1.0146892
206	0x3ecbeaec	0.3982767
207	0xbf893aaf	-1.0721034
208	0xbea7c82e	-0.32769912
209	0xbf0c29f1	-0.547515
210	0x3ed529b4	0.4163338
211	0x3ec2b126	0.3802578
212	0x3f3787f8	0.71691847
213	0x3f24b736	0.6434206
214	0xbf7030c5	-0.93824416
215	0x3e429a01	0.1900406
216	0x3f93d9df	1.1550864
217	0x3f81538e	1.0103624
218	0xbe1f5021	-0.1555791
219	0x3ef84d18	0.48496318
220	0xbe6e47cb	-0.23269574
221	0x3ba3f944	0.00500408
222	0xbf4cfdbc	-0.8007467
223	0xbe7edfc2	-0.24890044
224	0xbebdcf8d	-0.3707241
225	0xbf587600	-0.84555054
226	0x3eca746a	0.39541942
227	0xbd8d8890	-0.06910813
228	0x3fa17fa7	1.2617081
229	0xbe96aa74	-0.2942692
230	0xbf5ec4e7	-0.870192
231	0x3f50f4ac	0.8162334
232	0xbce3947d	-0.027780766
233	0xbf592773	-0.8482582
234	0x3f1e379e	0.61803615
235	0xbeb8e459	-0.36111715
236	0xbf41dc2c	-0.7572658
237	0x3f175aec	0.5912311
238	0xbe449528	-0.19197524
239	0x3ec3f6b0	0.38274145
240	0x3f776025	0.9663108
241	0xbe499daa	-0.1968905
242	0xbe4800ce	-0.19531557
243	0xbe8e27a1	-0.2776461
244	0xbf501f62	-0.81297886
245	0xbf9b27f1	-1.2121564
246	0xbf3b0852	-0.7305957
247	0x3e02bbba	0.12766925
248	0xbeba0bbd	-0.3633708
249	0x3eeb5167	0.45960543
250	0xbf361e58	-0.7114005
251	0x3d1e97fe	0.03871917
252	0x3ef578c0	0.47943687
253	0xbe717f13	-0.23583631
254	0x3f0bc56c	0.54598117
255	0xbf11ccef	-0.5695333

decomposer.feature_enhancer.0.spectral_att.0.bias f4 [8]
0	0x3e2c1773	0.1680582
1	0x3e0f2ace	0.13981172
2	0xbe075164	-0.13214642
3	0x3e2982c3	0.16553788
4	0xbd0a130c	-0.03370957
5	0x3e152de1	0.14568283
6	0x3e3700ae	0.17871353
7	0xbda555fa	-0.08073039

decomposer.feature_enhancer.0.spectral_att.2.weight f4 [32, 8, 1, 1]
0	0xbf0027d5	-0.5006078
1	0xbc774cca	-0.0150939915
2	0x3ec1e5d8	0.3787067
3	0xbb01eba1	-0.0019824284
4	0x3f060ed2	0.52366364
5	0x3e4a71ba	0.19769946
6	0xbe3af638	-0.18257987
7	0x3e6ad63c	0.22933286
8	0xbf48a85f	-0.78381914
9	0xbf5f12d1	-0.87138087
10	0x3f033972	0.5125953
11	0x3e639448	0.22224534
12	0xbf2ffa74	-0.68741536
13	0xbf457812	-0.7713634
14	0xbf889822	-1.0671427
15	0x3ef1f551	0.47257474
16	0x3d7fe348	0.06247261
17	0xbeb1508d	-0.34631768
18	0x3f2c46e7	0.6729569
19	0x3f47dd25	0.78071815
20	0xbf1b2029	-0.6059595
21	0xbec92e42	-0.39293104
22	0xbda32921	-0.07966829
23	0xbe400e98	-0.18755567
24	0xbf87d7f8	-1.0612783
25	0xbf0f56cc	-0.55991817
26	0x3ea241f1	0.31690934
27	0x3f58a05b	0.84619683
28	0xbece1f85	-0.40258422
29	0xbf354fb5	-0.7082475
30	0xbf98dbe0	-1.19421
31	0x3ee27642	0.4423085
32	0xbf09205b	-0.53564996
33	0xbecb3422	-0.39688212
34	0x3dbd6f91	0.09249795
35	0x3e126ec1	0.14300062
36	0xbe2898f7	-0.16464601
37	0xbe8b20d8	-0.27173495
38	0xbe6ab1fe	-0.22919461
39	0xbdcfcf23	-0.1014693
40	0xbe9aeaba	-0.30257207
41	0xbe9d2f12	-0.30699974
42	0xbdb55b26	-0.08855276
43	0x3f232c04	0.6373904
44	0x3ea03030	0.31286764
45	0xbe3cea5d	-0.18448777
46	0xbedcf3d7	-0.43154785
47	0x3e9ebcc3	0.3100339
48	0x3dff34d4	0.12461248
49	0xbed9ab9e	-0.42513746
50	0xbe930469	-0.28714302
51	0x3e6be4ff	0.23036574
52	0x3ea413aa	0.32046252
53	0x3ee9e42e	0.456819
54	0xbeb7d37d	-0.3590354
55	0xbec3f687	-0.38274023
56	0xbd479527	-0.048726227
57	0xbd517b46	-0.051142953
58	0x3e0be86e	0.13662884
59	0xbe193eb4	-0.14965326
60	0xbd5547ab	-0.0520703
61	0xbdfa9982	-0.122363105
62	0xbf249355	-0.6428731
63	0xbe3817d9	-0.17977847
64	0x3dc231dc	0.09482166
65	0xbca6f777	-0.020381672
66	0x3e7c6beb	0.24650542
67	0xbe1ef6fb	-0.15523903
68	0x3ea8b4d8	0.32950473
69	0x3e48f8ca	0.19626155
70	0x3e9088d4	0.28229392
71	0x3e5bbdc1	0.21459104
72	0x3e13f223	0.14447837
73	0x3db05f6b	0.086119495
74	0x3e6bab58	0.23014581
75	0xbf311bfe	-0.6918334
76	0x3ea0c76c	0.31402147
77	0xbd861df1	-0.065486796
78	0x3e56e853	0.20987062
79	0x3ebb4cd6	0.3658206
80	0xbe60cbb7	-0.21952711
81	0xbec50a4b	-0.38484415
82	0x3d0515a6	0.03249135
83	0x3e208e9f	0.15679406
84	0x3ec2c84f	0.38043448
85	0xbf2743cb	-0.6533782
86	0xbdf6393b	-0.120226346
87	0x3ed40804	0.41412365
88	0xbe433f8f	-0.19067214
89	0xbe1a37c0	-0.1506033
90	0x3d67c08e	0.05658012
91	0xbd85c76a	-0.06532176
92	0xbe147846	-0.14499006
93	0xbe9350d1	-0.28772596
94	0x3d472e4c	0.048628137
95	0x3ef391f0	0.4757228
96	0xbf32d50f	-0.6985635
97	0xbf611cbb	-0.87934464
98	0x3eb29ccd	0.34885255
99	0x3f90186c	1.1257453
100	0xbe30e168	-0.17273486
101	0xbf401b85	-0.7504199
102	0xbf302200	-0.6880188
103	0x3f1d8ed1	0.61546046
104	0xbec8ff5c	-0.39257324
105	0xbf3f1f51	-0.7465716
106	0x3e406d8f	0.18791793
107	0xbef2f75b	-0.47454342
108	0xbf37f89e	-0.71863735
109	0xbf954c7e	-1.1663969
110	0xbf8df215	-1.1089503
111	0x3e9b0134	0.30274355
112	0xbe84fcd6	-0.2597415
113	0x3de79589	0.113078184
114	0x3e9dc4fc	0.3081435
115	0x3f8c60bf	1.0967025
116	0xbd8ac1a3	-0.067752145
117	0xbe38f07b	-0.18060486
118	0x3e1f3ac1	0.15549757
119	0x3d1d0ce9	0.03834239
120	0xbedc272e	-0.42998642
121	0xbec6d3db	-0.38833508
122	0x3d268ec4	0.040663496
123	0xbda89e93	-0.08233371
124	0x3e9bdcc4	0.30441868
125	0xbd93ce15	-0.072170414
126	0x3cf83f1f	0.030303536
127	0x3eced590	0.4039731
128	0x3f3acb22	0.72966206
129	0x3e8c1be4	0.2736503
130	0xbe5b7d62	-0.21434548
131	0xbe933eda	-0.2875889
132	0x3ece3954	0.40278113
133	0xbd391879	-0.045189355
134	0x3e05158e	0.12996504
135	0x3e1e9f77	0.15490519
136	0xbe6d59a4	-0.23178726
137	0x3ec69492	0.38785225
138	0x3db56e70	0.08858955
139	0x3d97205c	0.07379219
140	0x3e4b5891	0.19858004
141	0xbe05ebd1	-0.13078238
142	0xbe465112	-0.19366863
143	0x3e9c26a7	0.3049824
144	0xbe3b2af1	-0.182781
145	0x3e37534a	0.17902866
146	0x3e36bac7	0.17844687
147	0xbe6d99ed	-0.2320325
148	0xbe9ec6c1	-0.31011012
149	0xbf014576	-0.50496614
150	0x3e5db546	0.21651182
151	0xbd90a082	-0.070618644
152	0xbebc9641	-0.36833385
153	0xbf4d8086	-0.80274236
154	0x3f206141	0.626484
155	0x3f754e4f	0.95822614
156	0x3e2f675c	0.17129272
157	0x3ca44835	0.020053962
158	0xbe4ee9e5	-0.20206411
159	0x3e95e589	0.29276684
160	0x3dda1c8f	0.10649978
161	0xbf5898ae	-0.8460797
162	0x3f102b25	0.56315833
163	0x3f130e21	0.57443434
164	0xbd0d5bad	-0.034511257
165	0xbf41ce16	-0.7570509
166	0xbf13ee1b	-0.57785195
167	0x3f482100	0.78175354
168	0xbeee9b03	-0.4660264
169	0xbde88cd1	-0.113549836
170	0xbe1a26d6	-0.15053877
171	0x3df4235a	0.11920805
172	0xbd7f433c	-0.06231998
173	0xbeb6a65d	-0.356738
174	0xbc0ad683	-0.008473995
175	0x3ed0f9c8	0.40815568
176	0xbed747ee	-0.42047065
177	0xbf88ee73	-1.0697769
178	0x3f2c023b	0.67190903
179	0x3fa14ec0	1.2602158
180	0xbeb7b13d	-0.3587741
181	0xbf50422b	-0.81350964
182	0xbf80030c	-1.000093
183	0x3ecc08d1	0.39850476
184	0xbe8e4506	-0.27787036
185	0xbeddad5e	-0.4329633
186	0x3e888629	0.26664856
187	0x3e1d0f19	0.1533779
188	0xbe4a4664	-0.19753414
189	0xbe60b436	-0.21943745
190	0x3dddcea3	0.108304285
191	0x3ea6dc21	0.3258982
192	0xbf2be3f2	-0.6714469
193	0xbefef71a	-0.497979
194	0x3e115390	0.14192033
195	0x3eb1a696	0.34697407
196	0xbf0a3c14	-0.5399792
197	0x3f2bc912	0.67103684
198	0xbec4ea55	-0.3846003
199	0xbc8e16a9	-0.01734479
200	0xbe10f95a	-0.1415762
201	0xbd1a1722	-0.037619717
202	0xbb9d71c6	-0.0048048226
203	0xbe4b53dd	-0.1985621
204	0x3ea5a66c	0.32353532
205	0xbe4a0159	-0.19727077
206	0x3e3e4e7b	0.18584625
207	0xbee0cf49	-0.43908146
208	0x3d2e758c	0.04259257
209	0xbe2c169a	-0.16805497
210	0xbe24a985	-0.16080292
211	0x3f19e642	0.6011697
212	0x3e01b199	0.12665404
213	0xbb66aa3c	-0.0035196682
214	0xbee93cb9	-0.4555414
215	0x3e153e54	0.14574558
216	0x3ec20654	0.37895453
217	0x3f351bbf	0.7074546
218	0x3e8e6ccf	0.2781739
219	0xbf0ebdf0	-0.5575857
220	0x3f80062b	1.0001882
221	0xbaabb003	-0.001309872
222	0x3ed5eb68	0.41781163
223	0xbd6aaba9	-0.057292614
224	0xbed18df4	-0.40928614
225	0xbed971ca	-0.42469627
226	0x3dda31c8	0.10654026
227	0x3f1d84cb	0.6153075
228	0xbd44fbb8	-0.04809162
229	0xbf0e8d43	-0.556843
230	0xbea08863	-0.31354055
231	0xbd9891fc	-0.07449719
232	0x3e4df03d	0.20111175
233	0x3e809fdd	0.25121966
234	0xbb1deb3b	-0.0024096507
235	0xbf3fe439	-0.74957615
236	0x3e9160d1	0.28394178
237	0x3ed452c5	0.41469398
238	0x3e5766eb	0.21035354
239	0x3d58a2fa	0.0528898
240	0xbef536ab	-0.4789327
241	0xbedfc5c1	-0.43705562
242	0x3e32aaf0	0.1744802
243	0xbe95cebb	-0.29259285
244	0x3eb0562e	0.3444075
245	0x3b9345a0	0.004494384
246	0x3f013c2e	0.5048245
247	0x3f264f38	0.6496463
248	0x3e653838	0.22384727
249	0x3f26975d	0.6507471
250	0xbc3936da	-0.011304582
251	0xbf1cd168	-0.6125703
252	0xbcfd66d7	-0.030932827
253	0x3e7d30cf	0.2472565
254	0xbf100a58	-0.56265783
255	0xbe2943bc	-0.16529745

decomposer.feature_enhancer.0.spectral_att.2.bias f4 [32]
0	0xbd6d4bee	-0.05793374
1	0xbe1d0b13	-0.15336256
2	0xbe0e4319	-0.13892783
3	0xbe416747	-0.18887053
4	0xbc941c64	-0.018079944
5	0xbd19a8bf	-0.037514444
6	0x3c5da13c	0.013527211
7	0xbe2b16f2	-0.16707972
8	0xbd32dcef	-0.04366773
9	0xbdf4c096	-0.11950795
10	0xbd1a4308	-0.037661582
11	0xbde5c501	-0.11219216
12	0xbdf46f4f	-0.11935293
13	0xbe62acf1	-0.22136284
14	0x3cd55d0a	0.026045341
15	0xba8bfcde	-0.0010680219
16	0xbd948184	-0.07251266
17	0xbe29b8e3	-0.16574435
18	0xbd638a26	-0.05555167
19	0xbde24b14	-0.11049476
20	0xbe3511e7	-0.1768261
21	0xbe072543	-0.13197808
22	0xbe200b49	-0.15629305
23	0xbdd8a45d	-0.10578225
24	0xbe08922b	-0.13337009
25	0xbd6d3389	-0.057910476
26	0xbd20d281	-0.039263252
27	0xbe217c69	-0.15770115
28	0xbdf7b49f	-0.120949976
29	0xbce8b6dd	-0.028407509
30	0xbdc2d28b	-0.09512814
31	0xbddcad3e	-0.10775231

decomposer.feature_enhancer.0.spatial_att.0.weight f4 [1, 32, 7, 7]
0	0x3e69837f	0.22804068
1	0xbe03beec	-0.128658
2	0x3c0a1f97	0.008430383
3	0xbda35785	-0.079756774
4	0x3e47244d	0.19447441
5	0x3ea7d055	0.32776132
6	0x3de724e9	0.11286337
7	0x3d0e15ee	0.034688883
8	0x3ea7d6f6	0.3278119
9	0x3eac4e05	0.33653274
10	0x3e4532ae	0.19257614
11	0xbbf2b386	-0.007406655
12	0xbdb855db	-0.09000751
13	0xbe18df5b	-0.14928953
14	0xbc843741	-0.016139628
15	0xbe14d572	-0.14534548
16	0xbdd14ee9	-0.10220129
17	0x3e08e6fb	0.13369362
18	0xbd86ba14	-0.0657846
19	0x3c79dfec	0.015251141
20	0xbe9ff333	-0.31240234
21	0xbead29c2	-0.3382092
22	0x3e4cf379	0.20014752
23	0xbe29803a	-0.16552821
24	0x3de98f6a	0.11404307
25	0xbd96de12	-0.07366575
26	0x3cc52a80	0.024068117
27	0xbe1da859	-0.15396251
28	0x3dd78d40	0.10524988
29	0x3dba7b70	0.09105575
30	0xbeb41363	-0.3517104
31	0x3e2ad4fc	0.1668281
32	0x3e6510d5	0.22369702
33	0xbcfdfd15	-0.031004468
34	0x3e12efd6	0.14349303
35	0xbf0c6e95	-0.54856235
36	0xbdf07e4c	-0.11742839
37	0xbe63b084	-0.22235304
38	0x3e932533	0.28739318
39	0xbda8ae5b	-0.08236381
40	0xbe882b5a	-0.26595575
41	0x3e30a56a	0.172506
42	0xbe695a28	-0.22788298
43	0x3d743fa1	0.059630994
44	0x3eb327aa	0.349912
45	0x3bb28870	0.0054483935
46	0x3dce83b5	0.10083715
47	0xbd8ff359	-0.07028837
48	0xbe0c943f	-0.13728426
49	0xbd359969	-0.044335756
50	0xbdfcb319	-0.12338848
51	0xbe603fb7	-0.21899305
52	0xbd14aec5	-0.036299486
53	0xbde105bb	-0.10987421
54	0x3c1670e2	0.009182187
55	0x3e5988ef	0.21243642
56	0x3b8204c0	0.0039678514
57	0x3dab4bb0	0.083640456
58	0xbc5e9129	-0.013584414
59	0x3e046bec	0.12931794
60	0x3d8efd66	0.06981926
61	0x3d83e8c0	0.06440878
62	0xbeae7191	-0.3407102
63	0x3e9911d0	0.29896402
64	0x3e08dcf8	0.13365543
65	0x3d61fadf	0.05517089
66	0xbe016b13	-0.12638502
67	0xbcc336e1	-0.02382988
68	0xba912f0d	-0.0011076644
69	0xbe332844	-0.17495829
70	0xbda01efd	-0.078184105
71	0x3e8ee362	0.27907854
72	0xbe038705	-0.12844475
73	0xbe768558	-0.24074304
74	0x3df0b722	0.1175368
75	0xbe63df2a	-0.22253099
76	0x3d762fc6	0.060104154
77	0xbe58d322	-0.21174291
78	0xbdc73e7e	-0.09728716
79	0xbe42b2b1	-0.19013478
80	0x3dd222d2	0.10260548
81	0xbe30464d	-0.17214318
82	0x3e8df2a4	0.27724183
83	0xbdc11ce5	-0.09429339
84	0x3c8cfb5d	0.017209703
85	0x3e857384	0.26064694
86	0x3e1d1294	0.15339118
87	0xbdc03cbb	-0.093865834
88	0xbe90d015	-0.28283754
89	0xbe84b423	-0.25918683
90	0x3ddbeb46	0.10738234
91	0xbe0328cf	-0.12808536
92	0x3db4f0b3	0.08834972
93	0x3e7ff41a	0.24995461
94	0x3e83b49f	0.2572374
95	0xbcc35f1e	-0.023849066
96	0xbd645486	-0.05574467
97	0x3d2d49be	0.042306654
98	0xbe121450	-0.14265561
99	0xbe104a3e	-0.14090821
100	0x3e5920e6	0.21203956
101	0xbdebe0b4	-0.11517468
102	0xbeb7b315	-0.35878816
103	0x3e1b98c3	0.15194993
104	0x3d104c64	0.0352291
105	0xbd2c2ba5	-0.04203381
106	0x3e947e87	0.29002783
107	0xbdb2fa76	-0.08739178
108	0xbcda6a28	-0.026661947
109	0xbe74b99f	-0.23898934
110	0x3e0e714a	0.13910404
111	0x3edf25cf	0.43583533
112	0xbea24d3c	-0.3169955
113	0x3ea6b476	0.32559556
114	0xbe336bc3	-0.17521577
115	0xbea0440f	-0.31301925
116	0x3de7edb2	0.11324634
117	0xbdf1a5a8	-0.117991745
118	0xbcfb79ea	-0.030697782
119	0x3e4da137	0.2008103
120	0x3e699e80	0.22814369
121	0x3e00c6fa	0.12575904
122	0xbd8791b6	-0.06619589
123	0x3e26dc58	0.16294992
124	0xbeb70608	-0.3574679
125	0x3e9c8ace	0.3057465
126	0xbe9443b6	-0.2895791
127	0xbe63d290	-0.22248292
128	0x3e567a12	0.20945004
129	0x3eb8b521	0.3607569
130	0xbd9ff41c	-0.07810232
131	0x3db82749	0.08991868
132	0xbd8656ec	-0.06559548
133	0x3dd0bfff	0.1019287
134	0x3e3a697c	0.18204302
135	0xbdc3336a	-0.09531291
136	0xbe62a46e	-0.22133037
137	0x3ed11bca	0.40841514
138	0xbe002311	-0.12513377
139	0x3da61c7f	0.08110904
140	0x3e6eda83	0.23325543
141	0xbd96d448	-0.07364708
142	0xbe521c16	-0.20518526
143	0xbecd4549	-0.40091923
144	0xbe9cd1b5	-0.30628744
145	0xbed54a47	-0.41658232
146	0x3e6cbb60	0.23118353
147	0xbe9df712	-0.30852562
148	0x3e3efd3b	0.18651287
149	0xbd193740	-0.037406206
150	0xbebfb805	-0.37445083
151	0xbd5d6475	-0.05405088
152	0xbab3f617	-0.0013729957
153	0xbdb75d01	-0.08953286
154	0x3ed25ee0	0.4108801
155	0xbd2c00f2	-0.04199309
156	0x3cdf8c0c	0.02728846
157	0x3db0e986	0.08638291
158	0x3cc9cb67	0.024633123
159	0x3ef19a94	0.47188246
160	0xbdf501d6	-0.11963241
161	0xbe6d5b47	-0.23179351
162	0x3d18c1b4	0.037294105
163	0xbe0233fb	-0.12715141
164	0x3dc07ae3	0.09398439
165	0x3ef9305e	0.48669714
166	0xbc0205f4	-0.00793599
167	0xbd90b0cb	-0.070649706
168	0xbdb7b1c8	-0.08969456
169	0xbe8bd08a	-0.2730754
170	0xbe714410	-0.2356112
171	0x3e2bd5c0	0.16780758
172	0x3e5174ae	0.20454666
173	0xbe5a684b	-0.21328847
174	0xbe92437f	-0.2856712
175	0xbe9ccfb1	-0.30627206
176	0xbea2c66c	-0.3179201
177	0xbe20e026	-0.15710506
178	0x3e2e92c6	0.17048177
179	0xbe6e205d	-0.23254533
180	0x3e5594be	0.20857522
181	0xbdbb9dc2	-0.09160949
182	0x3db763b9	0.089545675
183	0x3dbaa5c3	0.09113648
184	0xbdfd3815	-0.123642124
185	0x3d91d427	0.07120543
186	0x3e39ba01	0.18137361
187	0xbd2cb343	-0.042163145
188	0xbdfa477b	-0.12220665
189	0xbd6e1160	-0.05812204
190	0xbbe3dbab	-0.0069536767
191	0xbd7ff69d	-0.062491048
192	0x3e79cd7c	0.24394792
193	0xbdaf8ec4	-0.08572152
194	0x3d93b9a2	0.07213141
195	0x3e67bd53	0.22630815
196	0x3e8aec9b	0.2713364
197	0xbe7babcf	-0.24577259
198	0xbe756e55	-0.2396787
199	0x3e2ec7f4	0.17068464
200	0xbdeba7ec	-0.11506638
201	0xbd55ddf9	-0.052213643
202	0xbecb8d94	-0.39756453
203	0x3f025043	0.5090372
204	0xbe4eb7cc	-0.201873
205	0x3e1f4efa	0.15557471
206	0x3efc32e9	0.4925759
207	0x3df52a91	0.119710095
208	0xbe9f8138	-0.31153274
209	0xbc78ce81	-0.015185953
210	0xbdfa0d28	-0.122095406
211	0x3d436b82	0.04770995
212	0x3dcd323a	0.100193456
213	0xbebe7905	-0.37201706
214	0xbb49229e	-0.00306908
215	0x3d3a0ec4	0.045424238
216	0xbe0086af	-0.12551378
217	0xbe650f46	-0.22369108
218	0x3bb04925	0.0053798133
219	0xbd053ae0	-0.03252685
220	0x3df8333f	0.121191494
221	0xbd77596a	-0.060388006
222	0x3e29506f	0.16534589
223	0xbe35b264	-0.17743832
224	0x3e97173a	0.29509908
225	0x3efa194e	0.4884743
226	0xbe20c2e2	-0.15699342
227	0xbe98995b	-0.298045
228	0xbe2a1cf8	-0.16612613
229	0x3e7e68b0	0.24844623
230	0x3f38462a	0.7198206
231	0x3dc453e4	0.09586313
232	0x3d61eff2	0.05516047
233	0x3e6cdab6	0.23130307
234	0xbc572dee	-0.013133509
235	0x3def350f	0.11680042
236	0x3ca4717f	0.02007365
237	0x3eaa0e5c	0.3321408
238	0xbe2ff1c9	-0.17182077
239	0x3d137d7d	0.036008347
240	0x3ebfa34f	0.37429282
241	0x3e859fcc	0.26098478
242	0xbde13efa	-0.1099834
243	0xbdfcf683	-0.12351706
244	0x3df71e98	0.12066382
245	0x3e8f7cd5	0.28024927
246	0xbcd98d96	-0.026556771
247	0xbdcf0698	-0.101086795
248	0xbe57eda3	-0.21086745
249	0xbec6adbb	-0.3880442
250	0xbd8397bf	-0.06425428
251	0x3d0edc82	0.03487826
252	0x3df81e9f	0.121152155
253	0x3e3dee1c	0.18547863
254	0xbd0187dc	-0.031623706
255	0x3de19ad0	0.11015856

decomposer.feature_enhancer.1.weight f4 [32, 32, 3, 3]
0	0x3df25833	0.11833229
1	0x3d536bd4	0.051616505
2	0x3dfb3125	0.12265233
3	0x3e187a5e	0.1489043
4	0xbe44c4d7	-0.19215713
5	0x3d785faa	0.060638107
6	0x3c554d4c	0.013018917
7	0xbddb35fd	-0.10703657
8	0xbd5bf45f	-0.053699847
9	0xbe320bc3	-0.17387299
10	0x3db36ecd	0.08761368
11	0xbe01eb53	-0.12687425
12	0xbe3c5ef5	-0.18395598
13	0x3e4f9380	0.2027111
14	0xbdb9a868	-0.09065324
15	0xbcf558a0	-0.029949486
16	0x3d895991	0.067065366
17	0xbdf5f565	-0.12009696
18	0xbd993367	-0.07480507
19	0xbcdbfd2a	-0.026854116
20	0xbdc5de51	-0.09661544
21	0xbd8e52d4	-0.06949392
22	0x3d9ce65e	0.076611266
23	0xbc4c47f2	-0.012468325
24	0x3dbbedfd	0.09176252
25	0xbdc05f69	-0.09393198
26	0x3d6645d4	0.056218937
27	0xbd1d2dd0	-0.03837377
28	0x3e8d8097	0.2763717
29	0x3bc029d2	0.0058643604
30	0x3d330d15	0.043713648
31	0x3d887bea	0.0666426
32	0x3cc2b1b0	0.023766369
33	0xbcb3cb7a	-0.021947611
34	0x3d99f117	0.07516687
35	0xbd271bfa	-0.040798165
36	0xbde73f32	-0.112913504
37	0xbc328b3f	-0.010897457
38	0xbb11ed14	-0.0022266554
39	0x3d32b9c5	0.043634195
40	0x3b8b798e	0.004256434
41	0x3daa4a30	0.083149314
42	0xbd40eda6	-0.04710164
43	0xbd22b7b4	-0.039725974
44	0xbdbbee02	-0.09176256
45	0xbe2eb3fc	-0.17060846
46	0xbd69cc32	-0.0570795
47	0x3d17fa6a	0.037104048
48	0x3b5571e0	0.0032569095
49	0xbdd4e11c	-0.10394499
50	0xbd5a99e1	-0.053369407
51	0xbd85de24	-0.065365106
52	0x3dbd1efa	0.09234424
53	0xbe022b01	-0.12711717
54	0x3dcc8707	0.09986692
55	0x3d0c4392	0.034244128
56	0x3def030f	0.11670505
57	0x3df1b083	0.11801245
58	0xbe3c66c1	-0.18398573
59	0x3c76dae2	0.015066834
60	0x3c0fb33f	0.008770763
61	0x3ce4aecf	0.027915386
62	0x3d1388cf	0.036019143
63	0xbc8ee769	-0.01744433
64	0x3ea48afb	0.32137284
65	0xbcf1d16e	-0.02951881
66	0xbdb6b6c9	-0.08921582
67	0x3d2b0d66	0.041760825
68	0x3ded94ae	0.11600624
69	0x3c2b77c8	0.01046557
70	0x3e1f1ed1	0.155391
71	0xbdf25850	-0.118332505
72	0xbe604d5e	-0.21904513
73	0x3e0f0764	0.13967663
74	0xbd2b205e	-0.041778915
75	0xbe29b14e	-0.16571543
76	0x3e7e24c3	0.24818711
77	0x3c6dc865	0.01451311
78	0xbe9bd0f8	-0.30432868
79	0x3e19653a	0.14980021
80	0x3ba328e1	0.0049792384
81	0x3e1ebb94	0.15501243
82	0xbd58a087	-0.052887466
83	0x3a93b345	0.0011268636
84	0x3ba42bbf	0.0050100978
85	0x3e64f53e	0.22359177
86	0xbdd259da	-0.10271044
87	0xbe8c2217	-0.27369758
88	0x3e193a7a	0.14963713
89	0x3e01fe05	0.12694557
90	0xbdaebd9a	-0.085322574
91	0xbd2ced42	-0.042218454
92	0xbd55a6ea	-0.052161135
93	0xbd16ec08	-0.03684619
94	0xbd203f67	-0.039122965
95	0xbd588c79	-0.05286834
96	0x3def0775	0.11671344
97	0xbbd942da	-0.006630284
98	0xbe19f3d0	-0.15034413
99	0xbdd55285	-0.1041613
100	0x3d5f3965	0.054498095
101	0x3df2fba3	0.11864402
102	0xbe3b83ea	-0.1831204
103	0xbe8db1fb	-0.2767485
104	0x3e415c73	0.18882923
105	0xbd48bab5	-0.049006183
106	0xbd954af8	-0.0728969
107	0x3ce291a3	0.027657336
108	0xbe01e5d4	-0.12685329
109	0x3e4a24fe	0.19740674
110	0xbdd2fc93	-0.10302081
111	0xbe4fa843	-0.2027903
112	0x3df1240d	0.11774454
113	0xbc69bfc4	-0.014266912
114	0xbe543299	-0.20722426
115	0x3e2e43aa	0.17018
116	0xbd321ec6	-0.04348638
117	0x3dd9bdad	0.10631881
118	0x3cab1072	0.020881865
119	0xbdb17378	-0.08664602
120	0x3e5ea133	0.2174118
121	0x3d48b9cd	0.04900532
122	0xbc10db2c	-0.008841317
123	0xbc3e61e7	-0.011620021
124	0xbe12c742	-0.14333823
125	0xbd983b49	-0.07433183
126	0x3d6dc263	0.05804671
127	0x3e1a6e7b	0.15081207
128	0xbe6e2508	-0.23256314
129	0xbe8a3d59	-0.2699993
130	0xbe5a57f2	-0.21322611
131	0x3e0146e6	0.12624702
132	0xbbc74f93	-0.006082484
133	0xbe07d5da	-0.13265172
134	0x3d7630fd	0.060105313
135	0xbc24973d	-0.010045824
136	0xbd2b20ba	-0.041779257
137	0xbd325391	-0.043536726
138	0x3e0def32	0.13860777
139	0x3d36adaa	0.044599213
140	0x3db5658e	0.08857261
141	0x3df5e0e3	0.12005784
142	0x3c1683a2	0.009186657
143	0x3db9f81b	0.090805255
144	0x3d88c335	0.06677858
145	0xbe411807	-0.18856822
146	0xbd7bd599	-0.061483
147	0xbb837ccb	-0.004012679
148	0xbe8f44be	-0.27982134
149	0xbe1d6dbe	-0.15373895
150	0x3d38a137	0.04507562
151	0xbcf5a78e	-0.029987123
152	0xbd81600a	-0.06317146
153	0x3c94fb90	0.01818636
154	0xbec479b9	-0.38374117
155	0x3de4ba7c	0.111683816
156	0x3e724cb4	0.23662072
157	0xbd71a059	-0.05899081
158	0x3da5942c	0.08084902
159	0xbdf6450c	-0.120248884
160	0x3e832d7c	0.2562064
161	0xbd0e5305	-0.034747142
162	0xbd686aa9	-0.056742344
163	0x3dd5c295	0.10437504
164	0x3debdbb3	0.11516514
165	0x3c217b79	0.009856098
166	0x3d15c84a	0.036567964
167	0xbb9b18ab	-0.0047331653
168	0xbdc53228	-0.09628707
169	0x3d3b437c	0.045718655
170	0x3d6dc81d	0.05805217
171	0xbea0ff9a	-0.3144501
172	0xbeb457c0	-0.35223198
173	0x3e41e8bf	0.18936442
174	0x3dc3e311	0.09564794
175	0xbecc89ff	-0.39949033
176	0x3db7d93c	0.08976981
177	0x3d0b7323	0.03404535
178	0xbe98531c	-0.29750907
179	0x3d770cb6	0.060314856
180	0xbe869d62	-0.2629195
181	0xbe2072a3	-0.1566873
182	0xbd0e0e66	-0.0346817
183	0xbecec99b	-0.40388188
184	0xbe8b0314	-0.27150786
185	0xbdd70ff8	-0.10501093
186	0x3cc78efc	0.024360172
187	0xbe9ec2c1	-0.3100796
188	0xbcd05201	-0.025429728
189	0xbd541c91	-0.051785056
190	0xbdc95dc8	-0.098323405
191	0xbd7ddd65	-0.061978716
192	0xbce5c047	-0.028045787
193	0x3d639c57	0.05556902
194	0xbdad85cd	-0.08472786
195	0xbe0387a9	-0.12844719
196	0x3d7d405f	0.061828967
197	0xbddf5909	-0.10905654
198	0xbe25c8c7	-0.16189872
199	0x3e1f7eda	0.15575734
200	0x3dbf4007	0.09338384
201	0xbdf8c0da	-0.121461585
202	0xbdb00ab7	-0.08595794
203	0x3d961203	0.07327654
204	0xbe2b37fc	-0.16720575
205	0xbced1792	-0.028941903
206	0x3e1346e7	0.14382516
207	0x3dc7c200	0.097537994
208	0x3de64473	0.112435244
209	0xbcc7ac84	-0.024374254
210	0x3c256ad9	0.010096275
211	0x3de6c902	0.11268808
212	0x3dff384b	0.12461909
213	0xbc4423ae	-0.011971397
214	0xbdd3356d	-0.103129245
215	0xbd4ece77	-0.05048987
216	0x3cf1e1ef	0.029526679
217	0x3e4a6cd9	0.19768085
218	0x3ce17b5c	0.027524643
219	0xbde8afc0	-0.11361647
220	0x3d00b903	0.03142644
221	0x3b48075f	0.0030521972
222	0xbdf57c2e	-0.11986576
223	0x3e6329be	0.22183892
224	0xbd5fe615	-0.054662783
225	0xbdf2d2fb	-0.118566476
226	0x3d535ee6	0.051604174
227	0x3b78c231	0.0037957544
228	0xbd877285	-0.0661364
229	0x3da9a99d	0.08284304
230	0xbc909b87	-0.017652286
231	0xbd9fa967	-0.07795983
232	0xbdaf5473	-0.08561029
233	0x3d0c416d	0.034242082
234	0xbe02707b	-0.1273822
235	0xbd04ddea	-0.032438196
236	0x3d987ca0	0.07445645
237	0xbd69cdce	-0.057081036
238	0x3df84ac1	0.12123633
239	0xbcb77198	-0.022393033
240	0x3bfc4621	0.0076987897
241	0xbd114145	-0.035462637
242	0x3c6680c2	0.014068784
243	0xbe040789	-0.128935
244	0xbe12ffe4	-0.14355427
245	0x3d93d87d	0.07219026
246	0xbe00c143	-0.12573723
247	0xbd0e3da1	-0.034726743
248	0xbb8dd0a4	-0.0043278504
249	0xbd9f2ba3	-0.07771995
250	0x3d733f03	0.059386265
251	0x3e2c3680	0.16817665
252	0xbd743a53	-0.059625935
253	0xbe1bb7e4	-0.15206867
254	0xbd1a2144	-0.03762938
255	0xbd912cf0	-0.07088649

decomposer.feature_enhancer.1.bias f4 [32]
0	0x3bec8bef	0.00721883
1	0xb98fae13	-0.0002740478
2	0x3b1f53ad	0.002431135
3	0x3b2f6e12	0.0026768488
4	0x3b32a8cf	0.0027261262
5	0x3bb40417	0.0054936516
6	0x3b999bdc	0.0046877693
7	0xbbffca17	-0.0078060734
8	0x3c1327e3	0.008981678
9	0x3c38cedc	0.011279788
10	0x3bce344d	0.006292856
11	0xbae50367	-0.0017472327
12	0xbb72a586	-0.003702493
13	0x3bb0ca53	0.0053952127
14	0x3baf949f	0.005358293
15	0xbbf58083	-0.0074921264
16	0xbd55a2cb	-0.052157205
17	0xbba81908	-0.005129937
18	0x39c70a8c	0.00037964096
19	0x3c806bef	0.015676467
20	0xbc0a2234	-0.008431006
21	0x3c107a23	0.008818182
22	0xbd0a2be2	-0.033733256
23	0x3ba59820	0.005053535
24	0xbade104f	-0.0016942116
25	0x3c3f9c78	0.01169502
26	0x3b500090	0.0031738617
27	0x3b7a51fc	0.003819584
28	0xbb48808b	-0.0030594196
29	0xbca92957	-0.020649595
30	0x3b5bc598	0.0033534523
31	0x3c8c0d02	0.017096046
